…
          "base_uri": "https://localhost:8080/",
          "height": 799
        },
        "outputId": "8160cf47-b8c6-4d72-da75-71e60769b18f"
      },
      "cell_type": "code",
      "source": [
        "print(model.summary())"
      ],
      "execution_count": 15,
      "outputs": [
        {
          "output_type": "stream",
          "text": [
            "_________________________________________________________________\n",
            "Layer (type)                 Output Shape              Param #   \n",
            "=================================================================\n",
            "conv2d_1 (Conv2D)            (None, 32, 32, 32)        896       \n",
            "_________________________________________________________________\n",
            "dropout_1 (Dropout)          (None, 32, 32, 32)        0         \n",
            "_________________________________________________________________\n",
            "conv2d_2 (Conv2D)            (None, 32, 32, 32)        9248      \n",
            "_________________________________________________________________\n",
            "max_pooling2d_1 (MaxPooling2 (None, 16, 16, 32)        0         \n",
            "_________________________________________________________________\n",
            "conv2d_3 (Conv2D)            (None, 16, 16, 64)        18496     \n",
            "_________________________________________________________________\n",
            "dropout_2 (Dropout)          (None, 16, 16, 64)        0         \n",
            "_________________________________________________________________\n",
            "conv2d_4 (Conv2D)            (None, 16, 16, 64)        36928     \n",
            "_________________________________________________________________\n",
            "max_pooling2d_2 (MaxPooling2 (None, 8, 8, 64)          0         \n",
            "_________________________________________________________________\n",
            "conv2d_5 (Conv2D)            (None, 8, 8, 128)         73856     \n",
            "_________________________________________________________________\n",
            "dropout_3 (Dropout)          (None, 8, 8, 128)         0         \n",
            "_________________________________________________________________\n",
            "conv2d_6 (Conv2D)            (None, 8, 8, 128)         147584    \n",
            "_________________________________________________________________\n",
            "max_pooling2d_3 (MaxPooling2 (None, 4, 4, 128)         0         \n",
            "_________________________________________________________________\n",
            "flatten_1 (Flatten)          (None, 2048)              0         \n",
            "_________________________________________________________________\n",
            "dropout_4 (Dropout)          (None, 2048)              0         \n",
            "_________________________________________________________________\n",
            "dense_1 (Dense)              (None, 2500)              5122500   \n",
            "_________________________________________________________________\n",
            "dropout_5 (Dropout)          (None, 2500)              0         \n",
            "_________________________________________________________________\n",
            "dense_2 (Dense)              (None, 1500)              3751500   \n",
            "_________________________________________________________________\n",
            "dropout_6 (Dropout)          (None, 1500)              0         \n",
            "_________________________________________________________________\n",
            "dense_3 (Dense)              (None, 10)                15010     \n",
            "=================================================================\n",
            "Total params: 9,176,018\n",
            "Trainable params: 9,176,018\n",
            "Non-trainable params: 0\n",
            "_________________________________________________________________\n",
            "None\n"
          ],
          "name": "stdout"
        }
      ]
    },
    {
      "metadata": {
…
